phase4/artifacts/model.pt (torch, 248785 bytes, 14 tensors)

encoder.weight_ih_l0 f4 [256, 21]
00000000: c017 6c3d 0c90 4e3d 801f 68bd 9510 933d
00000010: 8b4a a5bd edcb 523d 6cbd ddbd 2426 d43d
00000020: db4a a23d 7e2e 0ebe a1fa a13d 23d3 15bd
00000030: 3d7f 313d 970f 15bd ea82 013d 5bdb 17bc
00000040: d516 0b3e a596 533d c6b8 7fbc 352c 913d
00000050: 638c b3bc 5796 db3b 3b14 45bd caa9 e13d
00000060: 89fc a5bd ca29 61bd d7a5 94bb 81c6 7cbd
00000070: ded1 563d ef72 c9bd ad6a 013e fd7c a1bd
00000080: 4cb3 eb3d b012 193d ea5f 1bbd 57cf a33c
00000090: a60d 223d fd85 fa3d 6d5e 653c f358 b5bc
000000a0: 40f5 473d 46d6 2dbd 63d8 6c3d e102 043e
000000b0: 4b71 963d fbcd 3cbd 5c3d b73d bb18 42bd
000000c0: 8bf7 8a3d b141 ebbd 24f2 fcbd 91e4 15bd
000000d0: 8672 a2bd 8122 f03d ddea 4a3d a87f 8d3d
000000e0: 5faf aa3d 5921 8cbc a312 e63d 6efe a0bd
000000f0: 20af 833c 5e24 96bd 9029 cbbc 4802 64bc
00000100: 8bdc 8e3d d2e5 843b f876 083e 1da0 2ebd
00000110: ac2d 7bbd 1101 3abd 7f72 073e 71a6 923d
00000120: 2d29 1a3e 0784 77bd 5295 adbd 5ed3 77bd
00000130: 3094 57bd 8bfc 4c3c 5b8b 8b3d d695 143e
00000140: 8d65 12bd d6c5 5dbd 9e0e d03d ef22 3cbd
00000150: 2281 da3d 4cc1 f239 a468 ce3d d0a8 87bd
00000160: 79fc 06bd 8ba5 d03d d8e8 923d c073 86bc
00000170: c089 c73d 4107 ed3d 0708 4dbd c715 edbc
00000180: c9ae 163e dc7b 45bc cffb 9bbd 8d18 94bd
00000190: f706 3dbd 5eb3 723d 593e 8d3c a7a2 7cbd
000001a0: 943e 613c deec debd 3eba e9bd d9be c3bd
000001b0: a0f7 04be fb8a b3bd 9fca fa3d 7225 a23c
000001c0: eff4 92bb 73b0 12be abd6 cabd da90 2fbd
000001d0: 98d7 a5bb 7faf 01be d6ae 7dbd f051 fdbc
000001e0: 048c 9cbc d9d1 19bd 9a18 d13a 18d6 9dbd
000001f0: c68e 9dbd 92fa bfbd 3a00 34bd 4448 d1bd
00000200: cf18 d73d 4a95 d9bc 0009 d53d c601 0e3d
00000210: d9d3 eabd b876 b83d e29c 0ebd 23e7 4dbd
00000220: eec2 cfbd 9347 edbd b958 103d 8f97 fcbc
00000230: 94c8 283d 3599 babd 5e74 d93d 7ac0 9abd
00000240: 736c 86bc e306 1c3d 049d 1d3d 25b0 bd3d
00000250: 30f4 b83d 8ac3 d2bd 8467 a23c 295d 9ebd
00000260: 3cfb 6a3c 4210 d8bd db93 073e 48eb c8bd
00000270: 0d96 533d 5cee 203d 8a73 c43c 9fd1 afbd
00000280: 9c70 b83d 2144 b33c bb10 ab3c 89db cebd
00000290: f96f 6d3d 84e2 d9bb 2f8f 45bd 1ab1 f23d
000002a0: a993 6f3d 285b 4dbd 8dcc fbbc ab64 ba3c
000002b0: bbe6 b53d 5be1 c53c 3b6b 3ebd c6f4 1a3c
000002c0: 2f24 81bd e36a 913d 83e5 fc3d fc7d aebd
000002d0: de0e 653d 4f35 ab3d 6397 34bd 0296 f53c
000002e0: 23e0 e73d a20a ea3d ee53 c13d 058d db3c
000002f0: 2879 a23c 053b 9f3b 7c81 11bd d327 32bd
00000300: 7ed9 8f3d 1d7a c03d 293d 103c 11f5 03bd
00000310: 3b0e b9bc a8ce 95bc 5276 9d3c 3f2e 8e3c
00000320: 3019 fdbd 1ba1 66bd 4d0e bc3d bf52 3f3d
00000330: 6211 0fbd e19f 53bd c442 47bd fd29 b0bd
00000340: 229a 79bc 87cf 7f3d c7b1 bb3d 2c6b 0c3d
00000350: 323b b6bd b9c4 91bd c5c5 30bd db80 ff3d
00000360: b919 cb3a ea5e 813c 4d56 8a3d cecb 54bd
00000370: 57ad 8bbd 38b5 973d 275e 73bd 019c 46bd
00000380: 07e2 49be b799 c33d 9952 093e 6be6 6d3d
00000390: 75e5 76bd d890 c2bd 4e21 ddbd c398 f83d
000003a0: 7e65 5b3d 1212 153e 99dd ac3d af54 ce3c
000003b0: 423c f63c 0855 97bd 2e99 a6bd 72d4 99bd
000003c0: 09f2 783d d1d4 48bd 4d10 28bd f570 6bbd
000003d0: ba6e efbc a53a febd 954d 23bd 2a32 3c3d
000003e0: 9d52 3bbd 35ac 993d 72df 2abd 21fc 13be
000003f0: 1851 a4bc 1fa9 a3bd 4b6a edbc 71d2 f9bd
0.057639837 0.050430343 -0.056670666 0.07180897 -0.080708586 0.05146401 -0.10827145 0.10358837
0.07924434 -0.13884923 0.07909132 -0.03657831 0.043334235 -0.03639182 0.03161899 -0.009268607
0.13582928 0.051657338 -0.015608018 0.0708851 -0.021917528 0.0067012715 -0.048114996 0.11018713
-0.08104808 -0.054971494 -0.004536371 -0.061712746 0.05244624 -0.09836375 0.1263835 -0.07885168
0.115088075 0.037371337 -0.037933268 0.019996328 0.039563797 0.122325875 0.013999564 -0.02213714
0.048817873 -0.042440675 0.05782355 0.12891723 0.07345828 -0.046094876 0.0894725 -0.047386866
0.06785496 -0.11487139 -0.12350872 -0.03659493 -0.07932 0.11725331 0.04954039 0.06909114
0.08334231 -0.017105745 0.112340234 -0.078610286 0.016074717 -0.07331155 -0.024800092 -0.0139165595
0.06975659 0.004055717 0.13326633 -0.042633165 -0.061322853 -0.045411173 0.1322727 0.071606524
0.1505477 -0.060428645 -0.08475746 -0.06050431 -0.052631557 0.012511383 0.06813689 0.14510283
-0.035741378 -0.05414375 0.10159038 -0.045931753 0.106691614 0.00046301854 0.10078552 -0.06623995
-0.03295562 0.10187825 0.07173318 -0.016412616 0.097430706 0.11573649 -0.050056484 -0.028941048
0.14715113 -0.012053456 -0.07616388 -0.07231245 -0.04614922 0.05925309 0.017241644 -0.061678555
0.01374783 -0.108850226 -0.11412476 -0.09557886 -0.12985086 -0.08766743 0.12245678 0.019793246
-0.0044847648 -0.14325123 -0.09904226 -0.04286275 -0.005061101 -0.12664603 -0.061934315 -0.03092286
-0.019109733 -0.037553642 0.0015952766 -0.07706851 -0.076932475 -0.09373964 -0.04394553 -0.10218862
0.10502779 -0.026560444 0.10402107 0.03466966 -0.11466188 0.09007019 -0.034817584 -0.050269257
-0.10144602 -0.11585917 0.035240863 -0.030833988 0.04120691 -0.09111253 0.106178984 -0.07556243
-0.016409134 0.038092505 0.03847982 0.092621125 0.0903095 -0.10291202 0.01982475 -0.07732613
0.0143421255 -0.10549976 0.13239996 -0.09810501 0.05165677 0.039289817 0.023980875 -0.08584904
0.090058535 0.021883072 0.020882001 -0.10100467 0.057968114 -0.006649317 -0.048232254 0.11850186
0.05849043 -0.05013576 -0.030737186 0.02275308 0.08881899 0.02415531 -0.04648898 0.009457773
-0.063057296 0.07100465 0.123484634 -0.08520123 0.05592238 0.08359777 -0.044089686 0.029978756
0.113220476 0.11427809 0.094398364 0.026800642 0.019833162 0.0048593306 -0.035523877 -0.04349501
0.07023905 0.09398291 0.008803644 -0.032216135 -0.022589793 -0.018287018 0.019221459 0.017356036
-0.1235832 -0.056305986 0.09182415 0.046709772 -0.034928687 -0.051666144 -0.048647657 -0.08601759
-0.015234502 0.062453773 0.09164768 0.034281895 -0.08898009 -0.071176 -0.043157358 0.12475749
0.0015495337 0.015792329 0.06754742 -0.051952176 -0.06820171 0.074076116 -0.059415963 -0.04848862
-0.19715129 0.09550803 0.13410415 0.05808107 -0.06027742 -0.09500283 -0.10797368 0.12138512
0.053563587 0.14557675 0.08440704 0.025186865 0.03005803 -0.07389265 -0.081346855 -0.07511224
0.060777698 -0.049031083 -0.04103117 -0.05748077 -0.029227603 -0.12413529 -0.03986891 0.045946278
-0.045733083 0.07503549 -0.041717 -0.14451648 -0.0200582 -0.07991242 -0.028981348 -0.12198342

encoder.weight_hh_l0 f4 [256, 64]
00000000: 4bd7 40bd 8147 083d 6cea 92bc 8917 aa3c
00000010: 1b40 a63d a6eb c73d bcaa dfbb dff0 31bc
00000020: a732 5f3d 5caa 153d df5f db3c d3b1 2b3d
00000030: a9d4 5d3d 9ece 9d3d 55e4 053e 4756 d43c
00000040: 88b4 8bbd 119b 1fbd 1986 043e cb1f 313c
00000050: e156 8fbd bb31 41bd c48c 263e 1847 aebd
00000060: 8475 0b3d e8e3 90bc ae62 923d 5936 85bc
00000070: 9a97 83bd 89ac 0cbd aba2 85bd b10d 353c
00000080: 9f4b 99bd 93cb 653d f46e b03b bbd0 f9bd
00000090: 6988 d53d b223 fc3c 9fd3 103e c579 33bd
000000a0: 6a0f ebbc e4bc 2dbe 2cf5 eebd 8ad9 6fbd
000000b0: cd51 063e c392 60bd 05a4 98bb dd6c dbbd
000000c0: c00c 18be 5281 88ba e1fa cdbd 1c92 9dbd
000000d0: 76bf a3bc f609 25bd 519e 313c 54ea cf3d
000000e0: 095e 94bd c7a1 17bd 711d 803c 4033 66bd
000000f0: 3470 413d f218 363e ef96 c3bd ac9b a6bd
00000100: 3139 98bd 671f 5d3c 7b49 e53b 0c1f 82bd
00000110: 1c9c 4b3d b63f 1b3b 97a0 84bd 2f36 b5bd
00000120: 3b23 c83d 3766 fe3d 9f96 2dbd f1c4 b6bc
00000130: 562b 013e 1466 ac3d c3b3 52bc 8e0e 9d3d
00000140: 53d1 ebbd 5e78 f63c b550 b63d 1a32 3fbd
00000150: 647e 41bd 7091 25bd 2ba0 d63b 69cd a43d
00000160: 4b5d d23d 31a5 26be 3ed6 e7bd a0ee 8ebc
00000170: 2bf9 d8bc 2943 a7bd e6a3 02be a6df b43d
00000180: fe57 603d da7b 5ebc af7e 31bd b290 f5bd
00000190: 2731 ae3b d5b3 543d 5127 debc 9b1f 823d
000001a0: 0ac0 133c 40bd 64bd 27e2 413d 0f83 a13c
000001b0: e20c 25bd 1080 4b3d 62d6 21be 3251 3ebd
000001c0: 9e0a cbbd c398 143e 76ca 0bbe 22db 6f3d
000001d0: b84b dcbd d198 303d 5445 2f3d 420a 57bc
000001e0: 1650 9dbc 881f ef3d a6ff b33d f42c a9bd
000001f0: fd95 83bd 70c3 323e 1378 1c3d 14e0 993c
00000200: d01b f9bc 1fdd 66bd 6951 93bd 3777 abbc
00000210: 3be8 b93d 1cd9 99bd 666c 85bc 1796 ce3c
00000220: ca07 ecbc 13d6 df3d bba6 e43d 7c78 163d
00000230: d095 9cbd 4a81 533d f9b3 f33d 2c31 ae3d
00000240: 5f34 803d 2a81 5ebd e791 19be 051d c4bd
00000250: 930b 4d3d d82f ac3d 13ab 3f3c 1eab 0abd
00000260: a2c9 b4bc 786b acbb 9e52 c7bc 792c 5ebb
00000270: db6d 183d da98 e63d b5ef c73d f8ad 9d3d
00000280: 085f e8bd a3bb d83d c3a0 103e 4320 5ebd
00000290: 56bb b338 a6c2 f03d 4241 a2bd 4f47 3d3d
000002a0: 995a fb39 c6f2 983d 7b91 fa3b a6d3 f33d
000002b0: 5374 b83d 5300 12bd a790 8a3d c6a8 abbd
000002c0: 3f97 aabd e464 203d 58c6 59bd a9a7 39bd
000002d0: 69cb 10be 15a2 9ebd 6b9d 89bb d939 163d
000002e0: 8c77 693d ec64 0cba 9757 033e f287 ebbd
000002f0: e381 abbd 9ec5 a03d 18ed 9abd 8813 df3d
00000300: 8f4c ba3c 5e98 3fbd 1a60 c13d 4861 de3c
00000310: 267b a63d 5e5c 683d ccb3 4d3c f398 0b3e
00000320: bd2e 153d deb9 fe3c ce9c 653d 695a 61bd
00000330: 6724 7fbd eca0 1f3e f614 83bd 575e 753d
00000340: d4a8 5f3d ab37 89bd b4cb 72bd b695 9abc
00000350: 0594 fb3d a643 88bd d112 0a3e bb6e 11be
00000360: f009 a83d a7c7 ae3d bd54 d2bc 6628 03bd
00000370: 8403 29bd bf4d 1e3d 0a96 213c c1dd 813b
00000380: 9279 5f3d 237c 3dbd 3587 003c 3838 863d
00000390: 1ae2 533d 945a cc3d d418 913d 8a1d efbd
000003a0: 532d 36bd 8c31 c53d 4b54 efbd 2628 edbb
000003b0: 61d3 b23d 8e24 5c3d 1414 8abd 62f8 533c
000003c0: df87 0bbe 0ea9 093e 0abf 4d3d d262 213c
000003d0: 0285 40bd 9596 50bd f504 fb3d 5c3f b3bc
000003e0: 3456 8c3c c083 2cbe 5f6d 8d3d 2ee2 d73d
000003f0: 19b9 023d a51d a33c 4327 5b3d 3226 dd3d
-0.04708032 0.033271316 -0.017934047 0.020763176 0.08117696 0.09761743 -0.006825773 -0.010860651
0.054491665 0.03653942 0.026779113 0.041917633 0.054157887 0.07705425 0.13075383 0.025920046
-0.06821543 -0.038966242 0.12941779 0.010810803 -0.06998993 -0.047166567 0.16264635 -0.08509654
0.03404762 -0.0176868 0.07147728 -0.016261267 -0.064254 -0.03434423 -0.06525167 0.011050628
-0.07485127 0.056102347 0.0053843204 -0.12198015 0.10426409 0.03077874 0.14143227 -0.0438173
-0.028693873 -0.16966587 -0.116678566 -0.05855707 0.13117142 -0.054827463 -0.0046582245 -0.107141234
-0.14848614 -0.0010414517 -0.10057617 -0.07693884 -0.019988757 -0.040292703 0.010840968 0.101521164
-0.07244498 -0.037019517 0.015639039 -0.05620122 0.047226146 0.17782953 -0.09550273 -0.08135161
-0.074327834 0.013496256 0.006997285 -0.06353578 0.049709424 0.0023689098 -0.064759426 -0.08848225
0.09772345 0.1242184 -0.04237997 -0.022310706 0.12614188 0.08417907 -0.012860241 0.07668792
-0.11514535 0.030086692 0.089021124 -0.04667864 -0.047239676 -0.040421903 0.006549855 0.080469914
0.102717005 -0.16273953 -0.1132016 -0.01744777 -0.026486 -0.08167107 -0.12757835 0.0883172
0.054771416 -0.013579333 -0.043333706 -0.11990489 0.005315918 0.051929314 -0.027118357 0.063536845
0.009017954 -0.055844545 0.047334816 0.019715814 -0.04029549 0.049682677 -0.15804437 -0.046464153
-0.099141344 0.14511399 -0.13651451 0.05855859 -0.1075663 0.043114487 0.042790726 -0.013125004
-0.019203227 0.11675936 0.087889954 -0.08260527 -0.06425092 0.17457366 0.03820045 0.018783607
-0.03040877 -0.05636322 -0.07193262 -0.02093087 0.090774976 -0.075121135 -0.01628704 0.025218053
-0.028812308 0.10929503 0.11164614 0.036735997 -0.07645762 0.05163697 0.118995614 0.085054725
0.06259989 -0.0543224 -0.14997064 -0.095758475 0.050059866 0.08407563 0.011698502 -0.033854596
-0.022068802 -0.0052618347 -0.024331387 -0.003390102 0.03721414 0.11259623 0.09762517 0.076991975
-0.11346251 0.10582664 0.14123826 -0.054229986 8.570279e-05 0.11755876 -0.07922603 0.046210583
0.0004794195 0.0746818 0.007646737 0.11905603 0.09006562 -0.03564484 0.067658715 -0.083818
-0.08329629 0.039158717 -0.05316767 -0.04532591 -0.14140095 -0.077457584 -0.004199674 0.03667626
0.056998774 -0.00053556147 0.12826382 -0.11500539 -0.08374383 0.078501925 -0.07564753 0.10892397
0.022741584 -0.046776168 0.09442158 0.027145997 0.081289575 0.056728713 0.012555074 0.13632564
0.036421526 0.031094488 0.056057744 -0.055017862 -0.062290575 0.1558873 -0.06400482 0.059904423
0.054604366 -0.06700071 -0.059276298 -0.018870216 0.12284092 -0.06653528 0.1348374 -0.14202397
0.082050204 0.085341744 -0.025675172 -0.03202095 -0.04126312 0.038648363 0.009862432 0.0039632027
0.054559298 -0.046260964 0.007844736 0.065536916 0.0517293 0.09978214 0.07084814 -0.11675556
-0.04447682 0.09628591 -0.116859995 -0.007237452 0.087317236 0.0537458 -0.06742111 0.012937637
-0.1362605 0.13443395 0.050231017 0.009850221 -0.047001846 -0.050924856 0.12256805 -0.021880798
0.017130949 -0.16847134 0.069056265 0.10541187 0.031914804 0.019911597 0.05350424 0.10798301

encoder.bias_ih_l0 f4 [256]
00000000: 1d8b 1d3e 2a60 533d b9e7 8b3d 04d1 9bbc
00000010: 994c 94bd b22f 5d3d 5425 a23c d162 073e
00000020: b2a3 a33c ae9e ab3d cefb 023e 922b 253c
00000030: 8edb 1fbc db7a cebd 9deb b13d f081 99bd
00000040: 5ebd ae3d daa6 a6bc d49b 983c 6d55 de3d
00000050: f912 fabd 6c8c f13d 2e79 66bb 0156 a33d
00000060: 84d4 803d dff5 003e b57b 5f3c 0bf8 c3bc
00000070: 1c71 693d e882 fabd 71a1 a5bd e00b 073d
00000080: 6dac 103e bdc3 6b3d df55 f1bc 1566 8c3d
00000090: 43dd 893d 11ff 1b3d f743 213e 806c c33d
000000a0: 7783 f73c 038f c5bd f5c0 d53d b1bb e53d
000000b0: 5a65 9abd e41a d63d 63b2 1a3e 11d4 893d
000000c0: 0874 ec3d 7b23 e13d 65e0 b3bb c416 e4bd
000000d0: ac06 c2bc 672a b23d 1561 b8bd 4a81 333e
000000e0: a207 943c 0091 20bd 283b f23d 1e1b 0bbd
000000f0: 387f 013c 243a fbbd f403 903d ddb1 2d3d
00000100: 412b 143e bdc3 bbbc 7137 0e3e 95d2 a4bd
00000110: a1dd fb3d 862e 933d 8644 033d c0e3 75bd
00000120: 87ba 0bbd ba00 80bc 5a43 053e 3167 103e
00000130: 8f81 3f3e 8653 273d 60df 97bc 6ea2 42bd
00000140: 36ed 3b3d 048b 663d 730a 4cbb 5947 193e
00000150: 24ae 6bbd f704 253d 334b a33c 1cf2 92bd
00000160: 1a52 7bbd 0f24 18bd ce3d 373e 97c7 1bbb
00000170: 7fd0 113d cbd1 e5ba adca 043d 5041 80bd
00000180: ce98 cc3d dca4 043e 169c 203d cf23 5b3c
00000190: 034f a9bd 63ae 94bd df62 7ebd 6964 f53d
000001a0: 7652 f3bb 37bf 903d a1cf 3a3d b4f0 ee3d
000001b0: 87b8 db3d d340 5fbd ebaa 48bd 26cf 3e3c
000001c0: 76e1 503d accf df3c 488e c03d ae90 793d
000001d0: 000f 483d a3a4 c2bd 5038 46bd e841 0f3e
000001e0: 4734 e2bc 0cb0 8abd 5b06 b03b 6506 2d3e
000001f0: 306d 403d 89b3 69bc aa42 043e b03b ff3c
00000200: db05 023e 520c 173e f1f4 c5bd 7a1d 38bc
00000210: e055 e03d a2d1 c0bd 468c 923d 1633 f93d
00000220: 4d10 d53d 5a82 67bd 8a75 c83d e2e5 063d
00000230: 7c28 f63d 47a3 013d c9f9 55bc b9a3 04be
00000240: 30dc 7ebd b057 013e c5b6 aa3d 3a54 63bd
00000250: 25c0 c63d db2f 96bd d09d 133e 65c3 113e
00000260: 9c91 f8bb 13a4 2e3d 9215 4f3d 1d3d 943c
00000270: 1b57 7a3c dc41 283d fcd3 ebbc 0373 7cbd
00000280: a148 d93c d1af 0abe 1ba8 0ebe 978c b13c
00000290: 7f1d 90bd 1aeb 3d3d 9614 453d 85c8 aebd
000002a0: 4eac 4cbd bae5 c53d fabb 29bc 3742 c3bc
000002b0: 7c34 c63b a8b7 063d 23a1 813d da2d 7f3d
000002c0: 7dd6 cdbd 9448 dd3d 103b bf3d aa12 ba3d
000002d0: 67db 08be 0ed3 4e3d 5ea0 11bd 7d46 20bd
000002e0: 1e0c 12be a365 6d3d 5ba2 f3bd 316c 4ebd
000002f0: 3bf4 58bc 6a4c 903d 4345 033d 8871 b33d
00000300: 86a2 9cbd e688 15bd 5138 473d 99db 20bd
00000310: cb06 08bd dbae 17bd eaa9 8b3d b4ce a03d
00000320: bb3a babc e88d 4fbd c910 ad3d 00a9 883d
00000330: 815b 293e 17d5 b93d ad91 bfbc e83e 173d
00000340: bc04 e03d 0198 6e3d 6530 ab3d 13af 253e
00000350: 6b44 783d b1cb 023d da24 fabd 2bb1 50bd
00000360: 2ded a83d a5ef 283e 4f3b bf3d 6f01 84bd
00000370: d96f d4bd 83bc 073e f681 9fbc 129f 153b
00000380: 1f0a 113b da63 ba3d 1995 123e ef23 543d
00000390: 1861 cc3d 9217 de3d 7758 afbd fb06 42bd
000003a0: 4e79 78bd 014a b53d d73c fe3d a7c5 7f3d
000003b0: 316f b83d 859d a0bd 7b20 f53b 7ee2 483d
000003c0: 28fe a63c cb55 0c3e 79f7 56bc ea24 d23d
000003d0: 1cc0 c739 9f83 1e3d 7765 fb3c 4a46 193e
000003e0: ce62 b5bc ec24 333c 83a8 fa3d c456 3e3e
000003f0: 1e08 69bd dee3 2e3d 3503 903c 0c31 aebd
0.15385099 0.05160538 0.06831307 -0.019020565 -0.07241172 0.054000564 0.01979319 0.13221289
0.019975517 0.08379875 0.12791368 0.010081189 -0.009756936 -0.100820266 0.08687518 -0.07495487
0.08532213 -0.020343233 0.018628992 0.108561374 -0.1221065 0.117943615 -0.0035167444 0.07975388
0.06290534 0.12593792 0.013640334 -0.023921987 0.056992635 -0.12232 -0.08087433 0.03297031
0.14128275 0.057559717 -0.029459892 0.06855408 0.067316554 0.038085047 0.15748583 0.09542179
0.030214055 -0.09646418 0.10437194 0.1121744 -0.075388625 0.10454348 0.15107112 0.067299016
0.11545569 0.109930955 -0.0054893964 -0.11137155 -0.023684822 0.08699494 -0.09002892 0.17529789
0.018070046 -0.039200783 0.118276894 -0.033961408 0.0079038665 -0.12266949 0.07032004 0.04240595
0.14469625 -0.022920484 0.13888337 -0.08047978 0.12298132 0.07186608 0.03204777 -0.060031652
-0.034113433 -0.015625346 0.13013974 0.14101864 0.18701766 0.04085114 -0.01853913 -0.047518186
0.04588052 0.05628492 -0.0031134158 0.14968623 -0.05753912 0.040287938 0.019933319 -0.07175085
-0.061357595 -0.037143763 0.1789467 -0.0023770088 0.035599228 -0.0017533837 0.03241985 -0.06262457
0.09990083 0.12953514 0.039211355 0.013375237 -0.082670234 -0.07259824 -0.06210601 0.11982042
-0.0074256016 0.07067721 0.045608167 0.11667004 0.10728555 -0.05450518 -0.048991125 0.011646068
0.050996266 0.027320705 0.09402138 0.060928993 0.04884243 -0.09504058 -0.048393548 0.13989985
-0.027612818 -0.067718595 0.0053718514 0.1689697 0.04697913 -0.014263996 0.12916055 0.03115639
0.12697546 0.14750794 -0.096658595 -0.0112374965 0.10953879 -0.09414984 0.07155661 0.12167947
0.104035 -0.056520797 0.09788044 0.032934077 0.120194405 0.031649854 -0.013060042 -0.1295308
-0.062221706 0.12631106 0.08335642 -0.055500247 0.097046174 -0.073333465 0.1441567 0.14234693
-0.0075857174 0.042636942 0.05055768 0.018095547 0.015279557 0.041078433 -0.028787605 -0.06163312
0.02652389 -0.13543631 -0.13931315 0.021673484 -0.07036876 0.04636679 0.048115335 -0.0853434
-0.04996901 0.096629575 -0.0103597585 -0.023835285 0.006048737 0.032889992 0.063295625 0.062299587
-0.10050676 0.10804859 0.09337437 0.09085591 -0.13364945 0.050494246 -0.03555333 -0.039129723
-0.14262435 0.057958256 -0.11896201 -0.050396148 -0.013241823 0.07045825 0.032048475 0.08761889
-0.076481864 -0.03650751 0.048637692 -0.039271925 -0.033209603 -0.03703199 0.06819518 0.078519255
-0.022733083 -0.05067244 0.08450467 0.06672859 0.16538812 0.09073847 -0.023384893 0.036925226
0.10938403 0.05825043 0.0835884 0.16180067 0.060612123 0.031932537 -0.1221406 -0.05095021
0.08248363 0.16497667 0.09337484 -0.06445586 -0.10372896 0.13255505 -0.01947115 0.002283041
0.0022131277 0.091010764 0.14314689 0.05179208 0.09979457 0.108443394 -0.08561795 -0.04736994
-0.06066256 0.08852006 0.12413948 0.062444355 0.09005583 -0.078425445 0.0074806786 0.049044125
0.020384863 0.13704602 -0.0131205255 0.10260947 0.0003809937 0.038699742 0.03068803 0.1496822
-0.02214184 0.010934096 0.12239172 0.18587786 -0.056892507 0.04269778 0.017579654 -0.08505449

encoder.bias_hh_l0 f4 [256]
00000000: 5035 48bd bc8b 003a f0bc 96bb a2a1 523d
00000010: bb8d 40bd 0cac dd3c 7044 d63d 5056 313d
00000020: a29e d13d 24d2 91bd 6ef6 253e 990c cfbc
00000030: 3f4f 403e 37cd 1ebd 0b5c 8d3c 4e3a 893d
00000040: 7881 7a3d d892 203d 8ae3 d43b d957 e63b
00000050: a169 ba3d 575e 123e 6287 dd3d 9685 8abd
00000060: d533 0b3e 04f3 2e3e 4c75 e43d 4d81 b33c
00000070: e61b adbd aadf 33bd bb07 e0bd ac8a d63d
00000080: 9975 f03d b7ff 9b3d 6fe0 c3bd dc7b 1f3d
00000090: cc1e 60bd 6a74 84bd 1634 75bd 1abe d33d
000000a0: 7549 543d b70e 0f3e 6698 283e 21f5 90bc
000000b0: 76cf b73d 067b 013e 59e4 703d 51c8 c0bd
000000c0: 9e28 2b3c 592c b1bd eae8 2d3b 02ef d63d
000000d0: a962 c43c ad29 a7bd d275 fb3d 8a79 513d
000000e0: c789 823d eac6 afbc e4de 63bd 5b90 df3d
000000f0: ed81 183d 2eef 2a3d bc68 c63b 6694 053e
00000100: 2797 4abd ad03 62bd 6f91 6bbd 550b 1c3c
00000110: efe0 4d3d ab83 d7bc 4a88 10bd a0ab d1bc
00000120: 914a 8bbc ee6d dabd 766d 953d 5707 b93d
00000130: 3446 c93c c07e ab3c 8e81 f13d cf8f 0f3e
00000140: e492 98bd 821a 74bd 7d9c cc3d 3a4d bf3d
00000150: 3756 063e 959f e13d 571f 8abd 3c97 b5bd
00000160: 9830 993d de16 d13d 898f ff3c 601d 003e
00000170: f792 fe3d ffd1 c03c 2e56 513d 1767 9abd
00000180: 31f1 de3c 48dc 8dbd 2a51 173e 0456 363d
00000190: 8d65 b03d 90d3 3bbd 513c b83d 0a28 533d
000001a0: f23c 6cbd 5507 ec3b 80d4 053e 672a b53d
000001b0: 6eb0 253c a9ff 123d b2b6 50bd f9a7 f33c
000001c0: b699 633d 0619 d13d e8d8 abbb b32c 4a3d
000001d0: bb2f 293d c1b7 013e c341 9e3d 4619 45bd
000001e0: c724 39bc 6a88 173c 08c3 b0bc 65f6 e33c
000001f0: fce4 ab3c 18fe 0b3d 4210 19bc b9eb a53a
00000200: 0852 02bd 33cb 8a3d 7b4e 1d3d 03a4 1b3d
00000210: 98fd d33d 0f6d 133d 28fc ca3d 6a39 abbb
00000220: 231c 36bc 5a58 98bd fa9e d7bd 7fc7 4ebd
00000230: 0846 423d e2b9 1cbc 8c4a 0d3d 956c 063d
00000240: 6bcf dbbd 7f70 023e 9cbb 15b9 b2df ebbd
00000250: af4b cd3c e2e3 513d 8ec8 3cbc 9fe6 b03c
00000260: 939f 133e d764 283d 84d4 80bd 7477 913c
00000270: 5cdf e93c b223 ca3d 0b1c e3bc 2169 f53d
00000280: 8855 7ebd f5d3 793d 17a5 8dbc 08ac 07bd
00000290: 3310 c33d 1a21 d03d 06f1 05ba 84f7 d3bd
000002a0: 5211 2dbd d889 02bd e0a4 debd b01d d1bd
000002b0: b472 563d e576 36bd 328e a53c 5f6d 4ebd
000002c0: 04f0 f1bd 3a61 af3d 2d62 9b3c 078f 653d
000002d0: 3df7 aabd 69bf 47bd b8df 45bd 04fa aebd
000002e0: d586 8a3c e349 043b 999d d73d cd51 c23d
000002f0: 3b37 8dbd a839 ddbb 4702 003d 2e7c a3bd
00000300: d690 1f3e bbb0 323d 67fb 813d 0b6c 213e
00000310: 1896 95bd ce29 f8bc fb34 4dbd acf2 6dbd
00000320: 5a45 da3d f9eb c13d 43c7 1d3e 1601 193e
00000330: 764d f8bb b5ae 103b 578c 2f3d 12be 093c
00000340: c9a4 e53d 61ed 1b3e 5e52 cdbd 2037 aa3c
00000350: a2e7 ba3d 1bfc 45bd bda7 b6bc 287b b23d
00000360: 2391 603d 8c2b 76bc 28c6 a13c a96c b93c
00000370: d6c9 ec3d 0583 8dbd b424 103c c3de 053c
00000380: 8814 1b3e e64e e93d f5e9 5a3c c5dc 42bd
00000390: 570b 113e 4bc9 80bc 7c1e 013a 56d1 cf3d
000003a0: 48b7 2c3d f0cb 1e3d d928 173e 32c2 8ebc
000003b0: 9705 d73d bf8c cf3d 083f 48bd f92c 193e
000003c0: 5713 993d 8d54 4cbd addb 123e 3669 d0bd
000003d0: 2cfd 573d f290 b63d d698 9b3d 542a 87bd
000003e0: 0f64 e53d ac20 043e 6553 da3d 7799 d93d
000003f0: de70 8abd c0aa cf3d bff5 e03c 2c8d 753c
-0.048878968 0.00049036345 -0.00460016 0.051423676 -0.047010165 0.027059577 0.10462272 0.043295205
0.10235335 -0.07120159 0.16207287 -0.025274562 0.1878023 -0.038769927 0.017255804 0.06700574
0.061158627 0.03920254 0.0064968513 0.007029515 0.09102178 0.142938 0.10816838 -0.06763761
0.13593991 0.1708489 0.11155185 0.021912241 -0.08452587 -0.043914475 -0.109389745 0.10475668
0.1174118 0.07617133 -0.09564292 0.03893648 -0.05471687 -0.06467517 -0.059864126 0.10338993
0.051827867 0.13970457 0.16464385 -0.017695012 0.08975117 0.12644586 0.05881152 -0.09413207
0.010446696 -0.08651037 0.0026536533 0.10494806 0.023972826 -0.08162246 0.12278332 0.0511413
0.06373935 -0.021457154 -0.055632487 0.109162055 0.037233282 0.041732006 0.006054966 0.13044891
-0.049460556 -0.055179287 -0.057511743 0.009524186 0.05026334 -0.026307901 -0.035286225 -0.025594532
-0.01700333 -0.10665499 0.07296269 0.09034603 0.024569608 0.020934463 0.11792289 0.14019702
-0.07449892 -0.059595592 0.09990785 0.09340902 0.13118826 0.11016766 -0.06744259 -0.08866736
0.07479972 0.1020944 0.031196373 0.12511206 0.12430375 0.023537634 0.051107578 -0.07539194
0.027214618 -0.06926781 0.14777055 0.044515625 0.08613119 -0.04585606 0.089958794 0.051551856
-0.05767531 0.0072030225 0.13069344 0.08845978 0.010112865 0.035888348 -0.05095548 0.029743182
0.055566512 0.10209851 -0.005244363 0.049359035 0.041305285 0.12667753 0.07727387 -0.048119806
-0.011300272 0.009248832 -0.021577373 0.027827451 0.020983212 0.03417787 -0.009342255 0.0012658752
-0.031816512 0.067770384 0.038404923 0.03799821 0.103511035 0.03599268 0.09911376 -0.00522535
-0.011115107 -0.07438727 -0.10528369 -0.050483223 0.04743007 -0.009565802 0.03449492 0.032818396
-0.10732921 0.12738226 -0.00014279637 -0.11517276 0.025060503 0.051242717 -0.011522425 0.021594344
0.14416341 0.041111793 -0.06290534 0.017757155 0.028548889 0.098700896 -0.027723333 0.119829424
-0.062093288 0.060993154 -0.017290635 -0.033123046 0.09524574 0.101625636 -0.00051094627 -0.10349944
-0.042252846 -0.03186974 -0.10871291 -0.102107406 0.052355483 -0.04454698 0.020209406 -0.050397273
-0.118133575 0.08563466 0.018967712 0.056044605 -0.08347938 -0.048766527 -0.048309058 -0.085437804
0.016909996 0.0020185641 0.10528106 0.094882585 -0.068953 -0.006751258 0.03125217 -0.0798267
0.15582594 0.043625575 0.06346779 0.15763871 -0.07304019 -0.030293372 -0.050099354 -0.058092758
0.10657759 0.09468836 0.15408044 0.1494182 -0.0075775934 0.002207679 0.042858448 0.008407133
0.11213071 0.15227272 -0.10025476 0.020778239 0.09126212 -0.04833613 -0.02229678 0.087148964
0.054825913 -0.015025031 0.019747809 0.022634821 0.11561935 -0.069097556 0.008797813 0.008170786
0.15144551 0.11392002 0.013361444 -0.047573823 0.14164482 -0.015720984 0.0004925502 0.101473495
0.042166978 0.03876871 0.14761676 -0.017426584 0.10499113 0.10134267 -0.048888236 0.14958562
0.07474392 -0.04988532 0.14341612 -0.101763174 0.052731678 0.08914365 0.075975105 -0.0659987
0.11200725 0.12903088 0.106604375 0.10624974 -0.06759809 0.1013999 0.02746093 0.014987271

to_latent.weight f4 [32, 64]
00000000: 169d 4bbd 0ebc 1cbc f252 bdbc 6c4e 00be
00000010: bdf7 c9bd c300 59bd d579 8ebc 9f39 9cbd
00000020: 3ccf 1abd 90dc a9bd cf21 80bd 63f8 c83d
00000030: ba86 98bd a088 02bd c657 9cba 7ee8 fa3c
00000040: 2ed9 acbd 7f7a 703d f317 353d 88ec 5d3d
00000050: 6137 c7bd ea0e b63d 04b1 4a3d aedf 023d
00000060: 0ee2 a53d 64dd 57bd 0ac7 5b3d 459a e43d
00000070: 65b0 643d b0d4 c6bc d0e9 fcbd 2756 e6bc
00000080: 5bfc c6bd 8064 053e 6403 68ba aeb8 2dbd
00000090: 250f e1bd 3469 d1bd dc0d 13bc c3a1 4f3d
000000a0: e2ab cebc 81ae ac3d 6b77 f23d 89cd 90bd
000000b0: 295f 2a3d b15a 7e3c 5214 fabd 6821 0cbd
000000c0: 95a1 be3c 2486 49bd 0e38 d4bd e123 f33d
000000d0: ccc4 a23d 777d 05be 38c4 e6bd 83e4 3f3d
000000e0: 2c6d 4dbd 217d ba3b 43ae 693d 33d4 f53c
000000f0: b6bf 8a3d e0a6 263d 1af9 a5bc 4303 3c3d
00000100: 41c3 72bd d10f 86bd 4462 25be 8529 443d
00000110: e6d2 a43d 808f 6ebd fb78 b23d 6057 7e3d
00000120: fc5e d83c b34f 633d 0318 943c 6459 f53d
00000130: 652c 923d c3cf af3d 090a 073e 6985 1bbb
00000140: c066 a73d e535 603d 453a 20be 736f 17be
00000150: 549d eeb9 377a 8f3d 966a 753d b26d b3bd
00000160: 8ba2 71bd d061 e3bd 208d e13d 311f adbc
00000170: 057f 663d 4fb3 ba3d c5f9 8dbc 53b2 113e
00000180: dfea 5d3d 778e 313b 0f9a b23c 126c 853d
00000190: 60f5 a5bd ed0d b3bd 68c8 1c3d 9e29 adbd
000001a0: 35b0 aabc 32b7 f5bc d70a 4e3d 4646 223d
000001b0: 16f7 aebc 8661 9d3d 4b08 cabd 22d5 2cbe
000001c0: 08f9 bf3d 7255 a3bd 2cba 03be 22a2 853a
000001d0: 9494 c23d f4ae 82bd 726d e13d d67e 283c
000001e0: fda2 a93d 29ae 7ebd 8ae5 bb3d b7a5 23bc
000001f0: 9652 f83d 644f 1abd b01d 133e 3086 babd
00000200: 09f6 12bd 41f9 1f3e 683d 633d 3e3e 953d
00000210: e667 c1bd 8792 b43d 3160 cdbb 6f06 ff3d
00000220: 0a9c cb3d 7084 d6bd 3a36 89bd 3db8 303e
00000230: c41a 9f3d c168 f53c ba0a 583c 01ed 8c3c
00000240: cc88 24bd f68b 9cbb 3a58 13be f62a 4b3b
00000250: df8c 8abd c9a1 aebd e7c6 e53d dbda a73c
00000260: ecbb fcbc 474f b4bd a8b3 babd e9f0 173d
00000270: 77a8 54bd 4560 83bd 779b c33c aedb 013d
00000280: 7e73 043d c8a3 07bd e77d 073e ffe1 3dbd
00000290: f90c 0a3e 0076 1d3d f0fc f33d 4ca5 e1bd
000002a0: d677 213d 5b5a e0bd 5682 8a3d acbd 0cbe
000002b0: 62a1 a13d c854 cabb 0890 d6bd e3b5 c6bd
000002c0: b788 263d 4852 ee3c e785 2fbd 0ab8 263e
000002d0: bcbe e43d 1c04 90bc f167 0abd 7628 783d
000002e0: 1496 8cbd 6efa c53d 4bae d53d f183 c63d
000002f0: 6a32 af3d 47cc c83b 4003 c1bd fa14 33bd
00000300: 4b82 bebc 6381 9b3d 2d04 653d 9093 153e
00000310: dfbe fd3d 847b 103e 623b 1b3c ff19 c8bd
00000320: 7632 32bd 8a4b 2bbd 9c07 abbd ab1a cabd
00000330: 7bcb 683c 7b23 1f3d 6ba6 e7bc 2328 cb3d
00000340: 47be b3bd 9f99 92bc a2a1 e93d 7e04 ce3b
00000350: 7dbd 583d fe81 de3d 21be c2bd 156b 3dbd
00000360: 272a 9b3d f6cc 34bd c2d3 b53d c682 e3bc
00000370: ade7 1fbd af21 c9bc ceff 033e 69a0 05be
00000380: e648 7d3b a1f3 073d c736 febd d545 d53c
00000390: 259d d13c 1162 d2bc e8cf 7a3d 5ae4 8d3d
000003a0: 5fd9 973d e7ef 11bd 17b6 e03d 403d 36bd
000003b0: 8bc9 95bd 486b cbbc b9a4 053e 15a4 233e
000003c0: 1be3 70bd 1c7a 0c3d ef46 ff3c 558d 92bd
000003d0: 607f d0bd 978d 693b d039 38bd cfcd b53c
000003e0: 431a a13d 7f88 3ebd 2744 7dbd 1757 193d
000003f0: 551c 893d 0a0c 153d a673 b8bd 04a2 90bd
-0.049710356 -0.00956632 -0.02311084 -0.12529916 -0.098617055 -0.052979242 -0.017392078 -0.07628178
-0.03779529 -0.08294022 -0.062564485 0.09813001 -0.07447572 -0.031868577 -0.0011928014 0.030628439
-0.08439861 0.05871057 0.044212293 0.054180652 -0.097273596 0.088895634 0.04948522 0.0319516
0.08099757 -0.05270137 0.053656615 0.11162237 0.055832285 -0.02427134 -0.12349284 -0.028117253
-0.09716102 0.13026619 -0.0008850603 -0.042412452 -0.10989217 -0.10225144 -0.008975472 0.050691377
-0.025228444 0.084317215 0.118391834 -0.07070453 0.041594658 0.015524552 -0.12210907 -0.034211546
0.023270408 -0.049200192 -0.10362254 0.11872078 0.07947692 -0.13036142 -0.112678945 0.046848785
-0.050152943 0.005691186 0.057050955 0.030008411 0.06774847 0.04068649 -0.020260382 0.045901548
-0.05926824 -0.065459855 -0.16150767 0.04789116 0.08048038 -0.05824232 0.087144814 0.062095046
0.02641248 0.05549593 0.018077856 0.119799405 0.07137374 0.08584549 0.13187422 -0.0023730642
0.08173895 0.054738898 -0.15647228 -0.14788608 -0.00045512116 0.070057325 0.0599161 -0.08761157
-0.058992904 -0.11102641 0.110132456 -0.021133037 0.05627348 0.09116232 -0.017331013 0.14228182
0.05417907 0.0027092972 0.021801976 0.065147534 -0.08103442 -0.087428905 0.03827706 -0.084552035
-0.020835975 -0.02999458 0.050303306 0.0396178 -0.021358054 0.07684617 -0.09864863 -0.16878179
0.09373671 -0.07975282 -0.12863988 0.0010195414 0.09500995 -0.06381026 0.11007203 0.010284146
0.08283041 -0.06217781 0.091746405 -0.00998824 0.12125127 -0.03767337 0.14366794 -0.091076255
-0.03587917 0.15622427 0.055478483 0.072872624 -0.09443645 0.088170104 -0.0062675704 0.12452399
0.099418715 -0.10474479 -0.06699796 0.17257781 0.07768777 0.029957177 0.013186151 0.017202856
-0.040169522 -0.004777427 -0.14389125 0.0031000949 -0.0676515 -0.08526952 0.11219578 0.0204901
-0.030851327 -0.088041835 -0.09116298 0.037094984 -0.051918473 -0.06414846 0.023877842 0.031703644
0.032336704 -0.03311518 0.13231622 -0.046358105 0.13481511 0.03844261 0.119134784 -0.11017856
0.039420925 -0.10954734 0.06763141 -0.13744229 0.078921095 -0.0061746575 -0.104766905 -0.09702661
0.040657725 0.02909197 -0.04285231 0.16281143 0.11169192 -0.017580085 -0.033790532 0.06058546
-0.06864563 0.09666906 0.10433634 0.096931346 0.085545376 0.0061278674 -0.09424448 -0.043721177
-0.023255488 0.07593038 0.055912185 0.14607072 0.123899214 0.14109617 0.009474607 -0.09770583
-0.043505155 -0.041820087 -0.08351061 -0.09868368 0.01420867 0.038852196 -0.028277596 0.09919765
-0.08776527 -0.017895518 0.11407782 0.0062871566 0.052915085 0.10864638 -0.095089205 -0.0462447
0.07576399 -0.04414078 0.0887828 -0.027772319 -0.039039303 -0.024552194 0.1289055 -0.13049473
0.0038648187 0.033191327 -0.12412792 0.026034275 0.025587628 -0.025681527 0.06123343 0.0692832
0.07414507 -0.03562918 0.10972231 -0.044492006 -0.07313832 -0.02483143 0.13051118 0.15980561
-0.058810335 0.03429614 0.031161753 -0.07155863 -0.10180545 0.0035637373 -0.04497701 0.022192864
0.07866337 -0.04651689 -0.061832573 0.03743657 0.06694857 0.036388434 -0.09006433 -0.07062152

to_latent.bias f4 [32]
00000000: d156 8dbc f7f7 bdbd 944a c23d f925 63bd
00000010: 4865 ebbd 571f e7bd f07c a0bd 6f68 f53c
00000020: 04cc f8bd f311 523d 0521 98bd dad7 243b
00000030: d998 97bc a083 12bd 93e0 c73d 253d cdbc
00000040: 7836 d33c 9e95 5f3d 0695 533d e71a 033d
00000050: 9944 d1bc 0aa4 d7bd 9608 cabd e1ca e63d
00000060: a847 00be a594 21bd 10e2 c03d f00b fdbc
00000070: 4c42 f0bd 2de0 ec3d 43ca 10bd 5cbc 8c3d
-0.017253311 -0.09275811 0.09486881 -0.055456135 -0.11493927 -0.112852745 -0.0783633 0.029957024
-0.12148288 0.05128665 -0.07428173 0.0025153072 -0.0185055 -0.03577006 0.09759631 -0.02505357
0.025782809 0.054586045 0.05165579 0.032008078 -0.025545405 -0.10529335 -0.09864919 0.11269165
-0.12527335 -0.0394484 0.09418118 -0.030889481 -0.11731395 0.11566196 -0.03534914 0.06871864

from_latent.weight f4 [64, 32]
00000000: a204 7c3d 7437 dbbd 8e61 3ebe dcae fcbb
00000010: 26a8 03be 504c 1dbe 46e5 1cbe 43c8 733d
00000020: e62e dfbd e5eb 823d e7fb 0e3e dff9 e13d
00000030: ca48 e83d 5c49 713d d209 0f3e d0df 223e
00000040: 2e3d da3c 1a1c a53d 9b29 0f3e b8de 84bc
00000050: 9eee 2a3e 6b3a 5c3b c312 e7bd 2a11 ddbd
00000060: 69b1 6c3d 6da0 dabd 5092 13be 1a33 053e
00000070: b8b4 0e3e 0a4e 39bd 9aa2 993d 9646 733d
00000080: b6cb 393e def0 8a3d a94f d43d 2787 19be
00000090: 4377 113d 5b63 c2bd 57a1 02be dd30 f73d
000000a0: c2cf c6bd 84ea 253e d96a 42bc 4bf1 843d
000000b0: de75 323e 8c05 b6bb ef9d 3d3e eb04 cebd
000000c0: 1833 a03d 006f a53d d384 ec3d 4b89 3b3e
000000d0: db75 6fbd 719e b73d 6758 b3bd bea8 9e3d
000000e0: 47e6 79bc 2549 e4bd c94c edbd 09c7 073d
000000f0: 7e04 093e 62c5 36be 3af5 103e 5d8f 083e
00000100: 74e9 1fbe 077d 703d 69e3 df3b 9b4a 0b3e
00000110: d463 203e a62c 253d c462 bcbd 517d 28be
00000120: 2272 bf3d e13b 28bb 1a97 1d3d a44c 8c3d
00000130: 7378 213c 3d72 123e 79f9 4dbd ff33 423d
00000140: 65db e83d 12a8 9ebd 3113 b03d 8c43 863c
00000150: 4262 26be 3d40 3b3d 8f26 3abe 1bcf f93d
00000160: a487 b2bd 7c5e 98bd 79d3 043e 75e5 b93b
00000170: 08af febd 8dca c53d af32 dcbd cf64 25be
00000180: bf88 ef3d c0fa 1bbe c1d7 efbd 396a 9fbd
00000190: 918c 313e 0286 83bd 22e3 17be 1131 b13d
000001a0: 6f55 1b3e 5981 e43c 45d0 86bd 75cb 22be
000001b0: 714e 01bd f033 f13d 1b53 26be f319 44be
000001c0: bb25 da3c c981 90bb 55b9 8abd b94e ccbd
000001d0: 1c6f eabd c615 abbd b731 333e 725b ee3d
000001e0: 1c24 203d 56d8 a23c ca45 413e 97ce 3c3d
000001f0: 9b6a 00bc 04a5 debd 06eb 0e3e f2e2 3dbe
00000200: 8df7 90bd 1769 763d 9c1c 0a3d e6d6 adbd
00000210: 5825 2dbe bdab 213d 76df 6abd 7fb3 dbbd
00000220: 0276 d7bd cf2d 91bd 42ac 2ebe 1aab a33d
00000230: 6af1 1abc af3a 39be 28a7 a23d c4f8 053e
00000240: d51c 8a3d 178a 80bd d5f9 80bd ee5c 773d
00000250: 6781 253e 0d21 4a3d df4e 72bd 0e03 0dbd
00000260: 2e84 353d dc7a fd3d a431 3d3e f040 4f3e
00000270: aa64 04be 9a29 663d ec5e 953c 2fa8 8a3c
00000280: 22e2 f4bc 19c6 e3bd 2be8 b93c 0bb7 3f3e
00000290: efa9 5c3d 46b8 733c b585 ae3d aca8 28bd
000002a0: 2135 75bd b2c1 0c3e 679d 00be 24fb 593e
000002b0: 650f 48bd db1b 243e 9c78 f53b 53eb dabb
000002c0: 3659 0d3e cf8c a1bd 6c12 d3bd c32b 82bc
000002d0: 93db d9bd 30c6 2fbe 198d 2e3e 7c07 393d
000002e0: c6cd c7bc 61c5 603e 4d8b 073d 3588 0f3e
000002f0: f2e1 5b3d 3624 2a3e 8a76 be3d da6a e3bc
00000300: 937d 36be ed5c eb3d df3e 41be f1fe 643c
00000310: c4b7 81bc 8585 d73d 74e2 3bbe 26dd b1bc
00000320: 7cb8 553d ff14 963d 84bd 0f3e 8e6d bbbd
00000330: 3986 013e 3ff9 283e be86 313d 740f 1ebd
00000340: e5a1 2d3e ae26 8bbd bed7 e8bb c4f7 5fbc
00000350: 109e e03d 8081 05be 743c 293e b568 aebc
00000360: d701 b23d f2de f93d e242 333e 9acb 1dbe
00000370: 09a6 1c3d fda4 ed3d 404c d63d 6acb 903d
00000380: 7774 df3d a624 afbd 5497 f33d b4e3 62bd
00000390: c245 1c3c 8a07 d0bc aa5a 31be 5c23 143e
000003a0: 9a6a 25be 742d 223d 219f f5bd 8bb0 953d
000003b0: 81ed b33c 01ce 5cbd 373c 23be c72f 363d
000003c0: b779 ee3d 8350 56be 9b2d 43bd 8580 98bd
000003d0: 00fc 683c c669 e0bd 93f6 15be fe31 0f3d
000003e0: a580 923d 1e1b c53d 19a7 393e 13a3 153e
000003f0: ec3b b9bd 964e 553e 6f25 05be eb9b fc3d
0.061527856 -0.10703936 -0.18591902 -0.0077112745 -0.12857112 -0.15361142 -0.15321836 0.059517156
-0.10897617 0.063926496 0.1396328 0.11033987 0.113420084 0.05890785 0.1396859 0.1590569
0.0266405 0.080620006 0.13980715 -0.016219482 0.16692588 0.0033604156 -0.112828754 -0.107942894
0.05778638 -0.1067513 -0.14411283 0.13007775 0.13936126 -0.04524044 0.07501717 0.059393488
0.18144116 0.06784223 0.103667565 -0.14992963 0.035514127 -0.09491607 -0.12756859 0.12069867
-0.097075954 0.16202742 -0.011866295 0.064913355 0.17427775 -0.0055548605 0.18517278 -0.10059532
0.07822245 0.08077812 0.11548772 0.18314092 -0.058462005 0.08965767 -0.08757096 0.07747029
-0.015252656 -0.11146764 -0.11586911 0.0331488 0.1338062 -0.17848733 0.14156047 0.13335939
-0.15616399 0.058712985 0.0068325293 0.13602678 0.15663081 0.040325783 -0.091985255 -0.16454054
0.09347941 -0.0025670456 0.03847418 0.068505555 0.0098553775 0.14301391 -0.050286744 0.04741287
0.11369971 -0.077469006 0.085974105 0.01638963 -0.1624842 0.04571556 -0.18178771 0.12197705
-0.08717278 -0.074398965 0.12971295 0.0056731054 -0.12435728 0.09657774 -0.10751855 -0.16151737
0.11696004 -0.15232372 -0.11711074 -0.07783932 0.17338778 -0.06422044 -0.14832738 0.08651937
0.15169309 0.027893709 -0.06582693 -0.15897925 -0.03156895 0.117774844 -0.1624264 -0.19150524
0.02662932 -0.004410003 -0.067736305 -0.09975953 -0.11446974 -0.08353762 0.17499433 0.116385356
0.039096937 0.019878548 0.18874279 0.046095457 -0.007837917 -0.10871318 0.13956842 -0.18543604
-0.070784666 0.060158815 0.03371869 -0.08488254 -0.16908777 0.039470423 -0.057342015 -0.107275955
-0.10520555 -0.070888154 -0.17057899 0.079916194 -0.009456972 -0.18088792 0.07942039 0.13083178
0.067437805 -0.062763385 -0.06297652 0.06039136 0.16162644 0.049347926 -0.05915725 -0.03442674
0.04431551 0.12376949 0.18475968 0.20239615 -0.12929025 0.056192018 0.018233739 0.0169259
-0.029892985 -0.111217685 0.022693714 0.18722169 0.053873 0.014875477 0.08521596 -0.041176483
-0.05986512 0.13745764 -0.12560044 0.21287209 -0.048842806 0.16026251 0.0074911844 -0.006680885
0.13803563 -0.07888185 -0.10306248 -0.015890008 -0.106375836 -0.17165446 0.17046012 0.045173153
-0.024390113 0.21950294 0.033091832 0.14016803 0.053682275 0.16615376 0.09299953 -0.027760912
-0.1782134 0.114923336 -0.1887164 0.013976798 -0.015834697 0.10523514 -0.18348104 -0.021711897
0.05217789 0.073282234 0.14037138 -0.09151755 0.12648858 0.1650133 0.04334139 -0.038588956
0.16956289 -0.06794487 -0.0071057966 -0.013669912 0.10967648 -0.13037682 0.16526967 -0.021290163
0.08691757 0.122007266 0.17505983 -0.15409699 0.03824428 0.11603735 0.10463762 0.07070048
0.10910886 -0.08551912 0.11894098 -0.055392936 0.009538116 -0.02539422 -0.17319742 0.14466614
-0.16153947 0.03959413 -0.11993242 0.073090635 0.021963837 -0.053907398 -0.15940939 0.044479158
0.11644309 -0.2092915 -0.047650915 -0.07446388 0.014220238 -0.10957675 -0.14644842 0.034959786
0.07153443 0.09624313 0.18130149 0.14612989 -0.09044632 0.2083076 -0.13002561 0.123344265

from_latent.bias f4 [64]
00000000: 3a1c d6bd 2d17 293e 7cd3 1cbd 1da3 92bc
00000010: 98cf afbd 8395 24bd d7de e5bd 112f c5bd
00000020: 89d6 99bd 881f acbd c47a 643d d016 a73d
00000030: d702 983d bf2b cbbd 7649 23be 6ca6 37bd
00000040: 72a9 3e3e 2971 dd3b 3400 363e 1e09 e33d
00000050: 4dc0 0c3e 4c85 ecba 3fa0 b53c 9c16 fcbd
00000060: d2b8 2e3d e389 643d c1af 04be f2a2 d8bd
00000070: 7b80 d3bd 8da8 3abc b5e6 e6bc 8993 b13d
00000080: f21c dfbd 1f90 213e 7ae3 bcbd 0032 fb3d
00000090: baab f83d 3c7f 413e 5156 e5bd ec35 8ebd
000000a0: c597 c3bd 375e ffbd 8052 59bd 5d13 27bc
000000b0: 31da b13d 4766 173e aa60 ac3d f4d2 4f3b
000000c0: dc87 6cbd ceae 97bd 282c 2b3e f028 1dbe
000000d0: 09f6 29bd 4e2a 43be e48f 55bd b7cd 21be
000000e0: 17cf 48be d3f2 913d 879d a9bd 34df 553d
000000f0: 7a12 2b3e 6d5f 24bd 1c58 a83d 8102 83bd
-0.104546025 0.16512747 -0.038287625 -0.017900044 -0.08584517 -0.040181648 -0.11224144 -0.09628118
-0.075116225 -0.084044516 0.05578114 0.08158648 0.07422417 -0.09920453 -0.15945992 -0.044836447
0.18619326 0.0067578745 0.17773515 0.11085723 0.13745232 -0.0018045097 0.022171138 -0.12309
0.042656727 0.05579556 -0.1295767 -0.10577954 -0.1032724 -0.011392725 -0.028186182 0.08670718
-0.10894193 0.15777634 -0.09223075 0.12265396 0.12142129 0.18896192 -0.11198104 -0.069438785
-0.09550432 -0.12469142 -0.053057194 -0.010197488 0.08684195 0.1478511 0.08416875 0.0031711431
-0.057746753 -0.07406388 0.16716063 -0.15347648 -0.041494403 -0.19059107 -0.052139178 -0.1580113
-0.19610249 0.07126393 -0.08281999 0.052214816 0.16706267 -0.040130068 0.082199305 -0.06396962

decoder.weight_ih_l0 f4 [256, 64]
00000000: 06be a03d f5f8 e83d a9fc 4fbd b3c5 a9bd
00000010: 22bd b63d 4acc ad3d 39e6 993d 0153 8abc
00000020: 4855 403d b452 0e3d 0864 453c 3663 6dbd
00000030: 8947 4a3d 1caf db3d 2f60 0bbd 95e0 fabd
00000040: 2cf8 c2bd 7006 68bd 5979 553d 9aa3 3f3d
00000050: 186d ce3d 42da d33c c551 373d 3b6e f8bd
00000060: 3149 923d 51e9 113e b101 a43c 5732 1cbc
00000070: e304 e6bd 5edd 163e 7940 89bb e3fc b7bd
00000080: 8bdd 2e3d 886d 8d3d aabb 813d 1915 db3d
00000090: b156 543d 5f5e 713d 64ac ea3d fca6 ae3c
000000a0: f651 493d efde abbc a7f9 c5bd 9d0d 083d
000000b0: 86ed ebbd 0296 893b b372 a5bd 2b86 03be
000000c0: ecea 0ebd 868f 06be 939f a23d 48fe c13c
000000d0: 8d0d e1bc c146 e23d 210b 7d3d e609 823d
000000e0: 5eed a3bd b6de efbd d3cf 86bc 9442 b43d
000000f0: ce0c e8bd 33b3 84bd 9966 233d 2da3 003d
00000100: 2e67 973d 5b36 033d b954 b7bb e3f5 bcbd
00000110: f922 1d3c 2fe9 be3d 817a e7bd d2d2 8abd
00000120: 5894 a9bc 149e d73b 8e69 763d 443d 5d3d
00000130: cb16 a73d 1aaa 38bd f254 0c3c 6023 b7bd
00000140: 48cc 89bd 8a94 13bd 22c9 cf3d f68d b3bd
00000150: f6cc 0ebd 27d7 4e3c 3aa9 b2bd ca05 5c3d
00000160: 815c c4bd db0d a73d ce9b f33d 2740 4c3d
00000170: 32a0 bd3d a86b 843d bb94 2b3d 8c70 0bbc
00000180: ae20 b3bc f19b 34bd 94c4 303d f572 98bd
00000190: d27c f0bd da0f 853c 7bb5 9cbd cfac 72bc
000001a0: 11d4 883d 99b6 d0bc e4a3 fe3d 6c36 8cbd
000001b0: 6b2a 9cbd 42c8 0e3d ba14 09bd 2eab 5b3d
000001c0: 426a 343c b5f8 e3bc 8c68 f8bd d1c1 8a3d
000001d0: 5401 8bbd 666a c93d f468 5dbd 865a 7f3d
000001e0: d5d4 c63c 550e 58bc 9aec 95bd 572e fa3d
000001f0: d244 df3d e871 febd 372f 5abd 1229 23bd
00000200: f2ff ed3c c37b 2fbd bf2d 0cbe ab84 33bb
00000210: f319 90bd bbfb 0cbe df0b 063d eea0 233d
00000220: 6363 68bd 4757 a13d cdf9 cf3d 12b6 8e3d
00000230: 8827 86bd a8d5 413e 33a6 9d3d 8515 05be
00000240: c075 8a3d 9a94 98bd efb5 a2bc 87c6 f0bd
00000250: 6faf 253d 9b5d 863c 1660 f63c 3f83 473d
00000260: 36eb 643d 8612 fbbd 9832 d7bd 2646 69bd
00000270: 5d03 dabd 8c69 c83c 648d b8bb f3ad 813c
00000280: fb67 9f3d d24d 343d af3c 3c3d 32cb 98bc
00000290: 9bce fabd df2c c6bc 9c37 b9bc dd1d 073e
000002a0: bc84 1dbd c40f d7bd cdb6 693c e1f8 ec3d
000002b0: e319 9fbd 193d 003d f23a 2d3e 3c25 223e
000002c0: b904 0cbd 14ae 0e3c d89a fc3d 679c edbc
000002d0: f45c 73bc 10d5 3cbd b3da 3dbd 9695 2a3e
000002e0: 3c3c 4f3c f3a3 b5bc b5b3 dd3d f4bf 5a3b
000002f0: 176d 8abc 4a80 863d 7c50 a83d 209f ff3d
00000300: 49ed 093d 21fb 86bd b609 ae3d de23 1abd
00000310: 4e30 853c 27b1 9a3d 36be 98ba a58d 763d
00000320: dafc 87bb d30a 5b3d 2d46 1d3e 185c 2b3e
00000330: 83d5 c6bb b424 093e 31f2 42bd 7a01 b2bd
00000340: c0c8 a1bc 68c1 053e b03c 50bc 9be6 033d
00000350: d510 633d 0c65 47bd 9d89 f5ba ced4 19bd
00000360: 88b8 52bd 1701 a1bd 9bee 13bd d186 ecbc
00000370: 06b6 a13d 6c1c bbbd 30ce ab3d 2eaa fa3d
00000380: cc42 b83b e72d 203e c173 9a3c c398 75bd
00000390: 2c70 46bd 4db2 713d 5e86 203c 676a aa3d
000003a0: a582 ecbd f013 d3bd d6be 6abd a2a5 9b3d
000003b0: a50b e93d 1ab8 ea3c 5836 7f3d 9f2b ddbc
000003c0: e832 02be cf8b babb 723e 183e 86c1 efbd
000003d0: cc63 abbd 9a55 233b d324 f2bc aefc 99bd
000003e0: 6cd3 11be d4d6 5abd d25f 92bd 5e72 4d3d
000003f0: 4337 eb3a 7639 7dbd f127 a1bd 1574 073e
0.07848744 0.1137561 -0.050778065 -0.08289661 0.08922793 0.08486231 0.075146146 -0.016885282
0.04695633 0.03474684 0.012047775 -0.057955943 0.049384627 0.10726759 -0.034027275 -0.12249867
-0.09519991 -0.056646764 0.05211768 0.046786882 0.10079402 0.02586091 0.044755716 -0.121304
0.071428664 0.1424916 0.020020338 -0.009533486 -0.11231401 0.14732882 -0.004188594 -0.08983781
0.04269175 0.06905657 0.06334622 0.106973834 0.051840488 0.05892789 0.11458662 0.021319859
0.04915043 -0.020980326 -0.09666758 0.033216108 -0.115199134 0.0041987905 -0.08078518 -0.1284415
-0.034892008 -0.13140687 0.079405926 0.023680821 -0.027472282 0.110486515 0.06177819 0.06349544
-0.080042586 -0.117124006 -0.01645652 0.08801761 -0.11330567 -0.06479492 0.039892767 0.031405617
0.07392727 0.03203426 -0.0055948165 -0.09226587 0.009590858 0.0932182 -0.11302663 -0.06778492
-0.020700619 0.0065801237 0.06015926 0.054013506 0.08158644 -0.045084096 0.008565174 -0.08942294
-0.06728417 -0.03603033 0.10145785 -0.08767311 -0.034863435 0.0126245385 -0.08723684 0.05371646
-0.09587956 0.081569396 0.11894952 0.049865868 0.092590705 0.06465846 0.041889887 -0.00851072
-0.021866169 -0.04409403 0.04315622 -0.07443801 -0.117425576 0.01624291 -0.07651802 -0.014811709
0.066810735 -0.025477694 0.124336034 -0.06846318 -0.07625278 0.03485895 -0.033467032 0.053630047
0.011011662 -0.027828554 -0.12129316 0.06775249 -0.06787363 0.09834747 -0.05405517 0.06234219
0.024271408 -0.013187011 -0.07320519 0.1221587 0.10901798 -0.1242407 -0.053267684 -0.03983409
0.029052708 -0.042842638 -0.13689326 -0.0027392309 -0.070361994 -0.13767903 0.032726165 0.039948396
-0.056735408 0.07877975 0.101550676 0.06968321 -0.06550509 0.1892916 0.076977156 -0.1299649
0.0676074 -0.074502185 -0.019862143 -0.11756616 0.04045051 0.016402056 0.030075114 0.04870915
0.055888377 -0.122593924 -0.10507697 -0.056951664 -0.10645173 0.024464391 -0.0056320895 0.015830016
0.077835046 0.044019528 0.04595631 -0.018651579 -0.12246438 -0.024191318 -0.022609524 0.13194986
-0.038456663 -0.10501054 0.0142647745 0.115709074 -0.077686094 0.031308267 0.16917017 0.15834516
-0.03418419 0.008708496 0.123342216 -0.029005243 -0.014853705 -0.04610163 -0.046351146 0.16658625
0.012648638 -0.022172904 0.10825292 0.0033378573 -0.016897721 0.06567438 0.08218476 0.124815226
0.03367356 -0.06590868 0.08497946 -0.037631862 0.016258385 0.075533204 -0.0011653367 0.060193677
-0.0041500153 0.05347712 0.15358801 0.1673435 -0.006067933 0.13392907 -0.047594253 -0.08691688
-0.019749045 0.1306206 -0.0127097815 0.032202344 0.055435974 -0.04868035 -0.0018733029 -0.037556462
-0.051445514 -0.07861536 -0.036116224 -0.02887288 0.07896046 -0.091362804 0.083889365 0.122394904
0.005623197 0.1564251 0.018854024 -0.059960138 -0.04844682 0.05900793 0.009797661 0.08321076
-0.11548356 -0.10306537 -0.0573109 0.07599951 0.11379174 0.02865224 0.062307686 -0.02699834
-0.12714732 -0.005692936 0.14867571 -0.117068335 -0.08368644 0.0024922849 -0.029558575 -0.07518898
-0.14240807 -0.053427532 -0.071471825 0.050157897 0.0017945546 -0.061822377 -0.07868946 0.13227876
