phase4/artifacts/model.onnx (onnx, 38863 bytes, 4 tensors)

to_latent.bias f4 [32]
00000000: d156 8dbc f7f7 bdbd 944a c23d f925 63bd
00000010: 4865 ebbd 571f e7bd f07c a0bd 6f68 f53c
00000020: 04cc f8bd f311 523d 0521 98bd dad7 243b
00000030: d998 97bc a083 12bd 93e0 c73d 253d cdbc
00000040: 7836 d33c 9e95 5f3d 0695 533d e71a 033d
00000050: 9944 d1bc 0aa4 d7bd 9608 cabd e1ca e63d
00000060: a847 00be a594 21bd 10e2 c03d f00b fdbc
00000070: 4c42 f0bd 2de0 ec3d 43ca 10bd 5cbc 8c3d
-0.017253311 -0.09275811 0.09486881 -0.055456135 -0.11493927 -0.112852745 -0.0783633 0.029957024
-0.12148288 0.05128665 -0.07428173 0.0025153072 -0.0185055 -0.03577006 0.09759631 -0.02505357
0.025782809 0.054586045 0.05165579 0.032008078 -0.025545405 -0.10529335 -0.09864919 0.11269165
-0.12527335 -0.0394484 0.09418118 -0.030889481 -0.11731395 0.11566196 -0.03534914 0.06871864

from_latent.bias f4 [64]
00000000: 3a1c d6bd 2d17 293e 7cd3 1cbd 1da3 92bc
00000010: 98cf afbd 8395 24bd d7de e5bd 112f c5bd
00000020: 89d6 99bd 881f acbd c47a 643d d016 a73d
00000030: d702 983d bf2b cbbd 7649 23be 6ca6 37bd
00000040: 72a9 3e3e 2971 dd3b 3400 363e 1e09 e33d
00000050: 4dc0 0c3e 4c85 ecba 3fa0 b53c 9c16 fcbd
00000060: d2b8 2e3d e389 643d c1af 04be f2a2 d8bd
00000070: 7b80 d3bd 8da8 3abc b5e6 e6bc 8993 b13d
00000080: f21c dfbd 1f90 213e 7ae3 bcbd 0032 fb3d
00000090: baab f83d 3c7f 413e 5156 e5bd ec35 8ebd
000000a0: c597 c3bd 375e ffbd 8052 59bd 5d13 27bc
000000b0: 31da b13d 4766 173e aa60 ac3d f4d2 4f3b
000000c0: dc87 6cbd ceae 97bd 282c 2b3e f028 1dbe
000000d0: 09f6 29bd 4e2a 43be e48f 55bd b7cd 21be
000000e0: 17cf 48be d3f2 913d 879d a9bd 34df 553d
000000f0: 7a12 2b3e 6d5f 24bd 1c58 a83d 8102 83bd
-0.104546025 0.16512747 -0.038287625 -0.017900044 -0.08584517 -0.040181648 -0.11224144 -0.09628118
-0.075116225 -0.084044516 0.05578114 0.08158648 0.07422417 -0.09920453 -0.15945992 -0.044836447
0.18619326 0.0067578745 0.17773515 0.11085723 0.13745232 -0.0018045097 0.022171138 -0.12309
0.042656727 0.05579556 -0.1295767 -0.10577954 -0.1032724 -0.011392725 -0.028186182 0.08670718
-0.10894193 0.15777634 -0.09223075 0.12265396 0.12142129 0.18896192 -0.11198104 -0.069438785
-0.09550432 -0.12469142 -0.053057194 -0.010197488 0.08684195 0.1478511 0.08416875 0.0031711431
-0.057746753 -0.07406388 0.16716063 -0.15347648 -0.041494403 -0.19059107 -0.052139178 -0.1580113
-0.19610249 0.07126393 -0.08281999 0.052214816 0.16706267 -0.040130068 0.082199305 -0.06396962

output.bias f4 [21]
00000000: b022 45bd bc40 9f3d 49d3 983d 5da9 8ebc
00000010: 821e 8a3d 3a39 333d a4ae bb39 6cb3 8b3b
00000020: b2e7 a43c 9e1c b6bd 9b81 2bbb d9fd 1d3d
00000030: 86a2 ee3b bbcb f7bc 37fd 84bd 66f0 cabb
00000040: 85fe 6dbd d7f0 9abd 8a43 063e 7047 5e3d
00000050: 2a9e a43d
-0.048128784 0.07776019 0.074621744 -0.017414743 0.067441 0.043755747 0.00035797537 0.004263332
0.020130012 -0.08892177 -0.002616978 0.038572166 0.007282558 -0.030248513 -0.064936094 -0.0061932085
-0.058104057 -0.07565468 0.13111702 0.054267347 0.0803798

val_17 f4 [1, 1, 64]
00000000: 0000 0000 0000 0000 0000 0000 0000 0000
00000010: 0000 0000 0000 0000 0000 0000 0000 0000
00000020: 0000 0000 0000 0000 0000 0000 0000 0000
00000030: 0000 0000 0000 0000 0000 0000 0000 0000
00000040: 0000 0000 0000 0000 0000 0000 0000 0000
00000050: 0000 0000 0000 0000 0000 0000 0000 0000
00000060: 0000 0000 0000 0000 0000 0000 0000 0000
00000070: 0000 0000 0000 0000 0000 0000 0000 0000
00000080: 0000 0000 0000 0000 0000 0000 0000 0000
00000090: 0000 0000 0000 0000 0000 0000 0000 0000
000000a0: 0000 0000 0000 0000 0000 0000 0000 0000
000000b0: 0000 0000 0000 0000 0000 0000 0000 0000
000000c0: 0000 0000 0000 0000 0000 0000 0000 0000
000000d0: 0000 0000 0000 0000 0000 0000 0000 0000
000000e0: 0000 0000 0000 0000 0000 0000 0000 0000
000000f0: 0000 0000 0000 0000 0000 0000 0000 0000
0.0 0.0 0.0 0.0 0.0 0.0 0.0 0.0
0.0 0.0 0.0 0.0 0.0 0.0 0.0 0.0
0.0 0.0 0.0 0.0 0.0 0.0 0.0 0.0
0.0 0.0 0.0 0.0 0.0 0.0 0.0 0.0
0.0 0.0 0.0 0.0 0.0 0.0 0.0 0.0
0.0 0.0 0.0 0.0 0.0 0.0 0.0 0.0
0.0 0.0 0.0 0.0 0.0 0.0 0.0 0.0
0.0 0.0 0.0 0.0 0.0 0.0 0.0 0.0
